test/Tizen.AIAvatar.Example/res/Intelligence/LipSync/audio2vowel_7.tflite (tflite, 484120 bytes, 36 tensors)

sequential/conv1d/BiasAdd/ReadVariableOp f4 [8]
0.1581849 -0.2592045 0.6797001 0.07832563 0.36203218 -2.600158 -1.0126312 0.33012423
00000000: 39fb 213e 74b6 84be d300 2e3f 3069 a03d
00000010: 485c b93e fd68 26c0 e69d 81bf 0b06 a93e

sequential/conv1d_1/BiasAdd/ReadVariableOp f4 [16]
0.5059485 0.7040402 -0.15007745 -0.2587031 0.2570595 0.39089727 -0.11434706 0.5673224
0.21390662 0.37812614 0.14001237 -0.19011709 0.18980302 0.2543819 -0.8301651 -0.6428341
00000000: d785 013f fb3b 343f e7ad 19be bc74 84be
00000010: 4e9d 833e b023 c83e cb2e eabd 0a3c 113f
00000020: 560a 5b3e c099 c13e 675f 0f3e 0eae 42be
00000030: b95b 423e 583e 823e b385 54bf c790 24bf

sequential/conv1d_2/BiasAdd/ReadVariableOp f4 [32]
0.21748841 -0.16640128 0.33315924 0.10988339 -0.8028655 0.10086478 1.0271667 1.1466705
0.69142646 0.5383921 0.34110114 -0.3864713 -0.39203423 0.967933 -0.3913626 0.4750966
-0.40743804 -0.27177066 1.3721945 -0.12163721 -0.07889855 0.13647164 0.68975854 0.68951
0.25453162 -0.49768847 0.83453023 -0.6661594 -0.42513707 -0.49598905 -0.17005005 -0.37977794
00000000: 48b5 5e3e 1965 2abe d993 aa3e 8b0a e13d
00000010: 9888 4dbf 3292 ce3d 337a 833f 19c6 923f
00000020: 5301 313f 11d4 093f cfa4 ae3e 91df c5be
00000030: b6b8 c8be 75ca 773f ae60 c8be dd3f f33e
00000040: b89b d0be 8625 8bbe 12a4 af3f ee1c f9bd
00000050: 9095 a1bd 39bf 0b3e 0494 303f ba83 303f
00000060: f851 823e 06d1 febe c6a3 553f 6c89 2abf
00000070: 91ab d9be 47f2 fdbe 9a21 2ebe 4172 c2be

sequential/conv1d_3/BiasAdd/ReadVariableOp f4 [64]
-0.16904469 0.39824957 -0.54561716 -0.5863703 0.43357196 -0.56707114 -0.42283112 -0.5556226
0.4293517 0.092981905 0.26024872 -0.3158626 -0.7317295 0.67596024 0.53914344 0.19131993
0.4756131 -0.8753239 0.3943503 0.5661401 -0.09417117 0.69807214 0.9560897 0.042990472
0.29869908 -0.61647123 0.57429487 -0.6711947 -0.15297417 0.5726321 -0.2888765 0.09857918
0.32469147 0.20919308 -0.7569353 -0.21166037 0.44092008 -0.8965565 -0.17947668 0.22987528
1.0809187 0.4919355 0.30022684 -0.08161948 -0.35130873 0.9005022 -0.51992893 0.13737996
0.141875 -0.12679698 -0.6940822 0.7071141 0.11912351 -0.3771445 -0.3951022 0.27147463
0.33224976 0.55070615 0.5471791 -0.20922023 0.29347363 -0.4589055 0.6877102 -0.12509638
00000000: 0d1a 2dbe 5ee7 cb3e 91ad 0bbf 5d1c 16bf
00000010: 25fd dd3e 932b 11bf 527d d8be 483d 0ebf
00000020: fcd3 db3e 4c6d be3d 523f 853e beb8 a1be
00000030: a052 3bbf bb0b 2d3f 4e05 0a3f 5fe9 433e
00000040: 8f83 f33e 3a15 60bf 48e8 c93e 8fee 103f
00000050: d0dc c0bd dbb4 323f 4bc2 743f c716 303d
00000060: 16ef 983e 0fd1 1dbf fd04 133f 6ad3 2bbf
00000070: 43a5 1cbe 0498 123f 9fe7 93be e2e3 c93d
00000080: f63d a63e b636 563e 83c6 41bf 7fbd 58be
00000090: 47c0 e13e ba84 65bf bcc8 37be 6d64 6b3e
000000a0: 8b5b 8a3f f8de fb3e 55b7 993e 1d28 a7bd
000000b0: bdde b3be 5087 663f 101a 05bf 55ad 0c3e
000000c0: ae47 113e 11d7 01be 5faf 31bf 6e05 353f
000000d0: 07f7 f33d 1519 c1be d64a cabe b9fe 8a3e
000000e0: a41c aa3e 14fb 0c3f ee13 0c3f d43d 56be
000000f0: 2d42 963e a9f5 eabe c70d 303f 4419 00be

sequential/conv1d_4/BiasAdd/ReadVariableOp f4 [128]
0.14620215 0.07987433 0.44967335 0.85501873 0.20517538 0.47221386 -0.044094823 1.0816036
0.86572385 0.9969578 -0.057894222 -0.38346028 0.3438812 0.21514012 -0.07409838 0.5662703
-0.4700506 -0.0715481 0.46135032 0.15372773 0.07473462 0.95946556 -0.45974705 0.20479155
0.82642347 0.38645846 0.6657612 -0.7113031 0.121429555 -0.27964535 -0.07031707 -0.31713054
0.4320351 0.5270813 -0.17130278 -0.12554574 -0.21034825 0.39921087 -0.18204479 0.35426992
1.0973542 0.611534 -0.2552127 0.20513411 -0.015468395 0.9674452 0.18051995 -0.12006148
-0.22160137 0.44099653 0.6439195 -0.73759717 0.75044304 -0.67083627 -0.48525536 0.42119062
-0.11661261 -0.3253847 -0.32099736 -0.36434975 0.50676125 -0.48741776 -0.45597568 0.28670174
0.27574652 0.24462207 0.12447798 0.114375554 0.01634199 0.7307894 0.2752545 -0.0024219458
0.5057102 -0.38493586 0.8515479 -1.1752048 0.6825655 0.20340173 -0.08396939 -0.35608473
-0.40272674 0.5035226 -0.5150716 0.33798367 0.2596427 0.032542896 -0.0611461 -0.098643504
0.86435544 0.031421293 0.42287162 0.07957153 0.946671 -0.51047856 1.3018029 0.34922916
-0.10099053 0.36940086 0.24736744 -0.26671866 0.33769292 0.69252217 -1.0167243 -0.13443606
0.037231732 -0.76823014 -0.3281133 0.2045914 -0.72499996 0.24616504 -0.012727496 0.8311184
0.8589612 0.6427944 0.5799425 -0.3090037 0.6098499 0.04539284 -0.0076640313 0.61671364
-0.5495602 -0.10639541 -0.29739326 -0.21499923 -0.35976097 -0.025022645 -0.12239686 -0.13966563
00000000: 04b6 153e 2795 a33d 963b e63e 82e2 5a3f
00000010: 7f19 523e 04c6 f13e c69c 34bd fd71 8a3f
00000020: 14a0 5d3f a038 7f3f 7e22 6dbd e854 c4be
00000030: 3211 b03e b14d 5c3e e4c0 97bd 17f7 103f
00000040: 79aa f0be cf87 92bd 1c36 ec3e cd6a 1d3e
00000050: 770e 993d 899f 753f f763 ebbe e0b4 513e
00000060: 7d90 533f e2dd c53e 536f 2a3f f617 36bf
00000070: 0fb0 f83d ad2d 8fbe 6502 90bd ef5e a2be
00000080: b433 dd3e cdee 063f ff69 2fbe 108f 00be
00000090: 8865 57be 5e65 cc3e f369 3abe de62 b53e
000000a0: 1a76 8c3f 7e8d 1c3f 3dab 82be ad0e 523e
000000b0: 276f 7dbc 7daa 773f 39da 383e cbe2 f5bd
000000c0: 78eb 62be 4cca e13e e9d7 243f 2bd3 3cbf
000000d0: 091d 403f edbb 2bbf 6473 f8be 4ca6 d73e
000000e0: 98d2 eebd d398 a6be c459 a4be 0d8c babe
000000f0: 1bbb 013f d28e f9be a575 e9be 92ca 923e
00000100: a62e 8d3e 357e 7a3e 50ee fe3d bb3d ea3d
00000110: a3df 853c 0415 3b3f 28ee 8c3e 82b9 1ebb
00000120: 3976 013f 5016 c5be 0bff 593f 1c6d 96bf
00000130: 9dbc 2e3f 8b48 503e 25f8 abbd bd50 b6be
00000140: 3332 cebe dbe6 003f bbdb 03bf 320c ad3e
00000150: e3ef 843e b34b 053d 5574 7abd 9b05 cabd
00000160: 6646 5d3f 9db3 003d a182 d83e 66f6 a23d
00000170: 0859 723f b9ae 02bf 7aa1 a63f 2ace b23e
00000180: 1fd4 cebd 1c22 bd3e e44d 7d3e 598f 88be
00000190: 16e6 ac3e 2249 313f 0624 82bf 9ba9 09be
000001a0: 4d80 183d bbaa 44bf 77fe a7be 6880 513e
000001b0: 9999 39bf b012 7c3e fd86 50bc 2dc4 543f
000001c0: e2e4 5b3f 2c8e 243f 1d77 143f bc35 9ebe
000001d0: 1f1f 1c3f d8ed 393d 8e22 fbbb f2e0 1d3f
000001e0: faaf 0cbf d6e5 d9bd ee43 98be c228 5cbe
000001f0: 9732 b8be 4afc ccbc 34ab fabd 8204 0fbe

sequential/conv1d_5/BiasAdd/ReadVariableOp f4 [128]
0.47512773 0.048442967 0.21968052 0.3787818 -0.07927847 0.7519708 0.08901105 0.047271576
0.44747105 0.6384561 0.026472442 0.30596298 -0.08433578 0.006254936 0.07967039 0.4059821
0.08666724 0.016825479 -0.12997416 0.76138204 0.21026985 0.43881238 0.120712124 0.34847695
-0.10484111 0.017129773 0.12195515 0.07774345 -0.014617037 0.21172391 0.027111279 0.08178406
0.027104517 0.56128126 0.27309883 -0.21438016 0.41859192 -0.14559224 -0.114624046 0.34551507
-0.24281704 0.26889038 0.17047366 0.46227646 -0.17434327 0.58177716 -0.24899435 -0.2032402
0.68876356 -0.21194503 -0.23754476 0.21262665 0.3631801 0.357312 0.0149318855 -0.32881665
0.20185032 0.3491688 0.5084118 0.2949298 -0.43066603 -0.092842355 0.18621594 0.2588415
0.05962744 0.044420227 0.46208468 0.30998132 0.6430045 0.0072163893 -0.10272895 0.36508858
0.39775753 -0.194462 -0.20361443 -0.25691098 0.28062096 1.1888819 0.040086642 0.17467862
0.09138881 0.25960007 0.40092027 0.3002698 0.5519068 0.68356967 0.37559965 0.35178226
-0.22768185 0.62219423 0.07423787 0.5554453 0.0459346 0.4877308 0.07121221 0.06462471
0.26471266 -0.37650314 0.04512366 -0.16439646 0.6563213 -0.08299739 0.18399909 0.16978809
-0.110725634 0.0048554153 -0.0036303017 0.29750028 0.15324919 -0.11757656 0.49400136 0.51161826
-0.020496303 0.7408829 0.2579052 -0.0275837 -0.16658156 0.66316724 0.34254426 -0.042012338
0.08869983 0.55845606 0.39612734 1.1320091 0.028632583 0.025429994 0.6942854 0.35261124
00000000: f143 f33e 226c 463d eef3 603e b0ef c13e
00000010: c05c a2bd 2981 403f 6d4b b63d d79f 413d
00000020: ed1a e53e dc71 233f bcdc d83c 2ea7 9c3e
00000030: 3db8 acbd 35f6 cc3b 3b2a a33d e3dc cf3e
00000040: 987e b13d 96d5 893c f217 05be efe9 423f
00000050: fb50 573e 04ac e03e eb37 f73d 926b b23e
00000060: f0b6 d6bd bd53 8c3c 9fc3 f93d f537 9f3d
00000070: 4c7c 6fbc 27ce 583e 7918 de3c 677e a73d
00000080: 4b0a de3c 21b0 0f3f 9cd3 8b3e 7986 5bbe
00000090: ae51 d63e 2216 15be 03c0 eabd 5ae7 b03e
000000a0: 08a5 78be 00ac 893e a690 2e3e 80af ec3e
000000b0: 0b87 32be 59ef 143f 60f8 7ebe 331e 50be
000000c0: cf52 303f 1e08 59be ef3e 73be cdba 593e
000000d0: bef2 b93e 99f1 b63e dea4 743c a85a a8be
000000e0: dab1 4e3e 41c6 b23e 4727 023f 0a01 973e
000000f0: 4280 dcbe 2224 bebd 64af 3e3e e086 843e
00000100: e73b 743d fcf1 353d 5d96 ec3e dfb5 9e3e
00000110: f19b 243f 7677 ec3b 8e63 d2bd e4ec ba3e
00000120: e0a6 cb3e 0c21 47be 4d80 50be d689 83be
00000130: 8dad 8f3e 482d 983f e431 243d f4de 323e
00000140: 0e2a bb3d 4dea 843e 6c45 cd3e f7bc 993e
00000150: c449 0d3f 6cfe 2e3f 994e c03e ce1c b43e
00000160: 6e25 69be 1f48 1f3f 060a 983d aa31 0e3f
00000170: eb25 3c3d dab7 f93e b5d7 913d f659 843d
00000180: 6b88 873e 05c5 c0be 96d3 383d 8c57 28be
00000190: ac04 283f 89fa a9bd 426a 3c3e eedc 2d3e
000001a0: 1fc4 e2bd 2d1a 9f3b 5bea 6dbb f551 983e
000001b0: 5bed 1c3e fbcb f0bd bfed fc3e 6af9 023f
000001c0: dde7 a7bc 80aa 3d3f 260c 843e 36f7 e1bc
000001d0: 5b94 2abe 54c5 293f f661 af3e 2115 2cbd
000001e0: 42a8 b53d faf6 0e3f 34d1 ca3e ade5 903f
000001f0: e18e ea3c 9052 d03c b0bc 313f 7689 b43e

sequential/conv1d_6/BiasAdd/ReadVariableOp f4 [64]
0.22721694 0.4009595 0.11829825 0.35472816 0.2031154 0.07080607 0.63855636 0.9659294
0.2307803 0.19186126 0.6322515 0.23424786 0.2694369 0.33259302 0.31113076 0.51390314
0.15847906 -0.03708247 0.5482392 0.84849787 0.17220408 0.13057658 0.46928805 0.49108204
0.19605936 0.4769125 0.58550966 0.1701485 0.19148771 0.1897324 0.32453948 -0.24481681
-0.015856622 0.71100396 0.34589857 0.49370694 -0.07171892 -0.38663372 0.4555233 0.23675644
0.12543689 0.19720988 0.66861653 0.6731034 0.8412609 -0.066122904 0.34339854 0.2611436
0.4807585 -0.10460524 0.08932138 0.5289497 0.43492222 0.5309054 0.44160408 0.6595759
0.53890204 -0.106287815 0.60897833 0.36311597 0.16609724 0.6643548 0.15873864 1.0130686
00000000: 8fab 683e 904a cd3e 5a46 f23d ee9e b53e
00000010: 7cfd 4f3e c602 913d 6e78 233f 2647 773f
00000020: ac51 6c3e 4777 443e 3cdb 213f acde 6f3e
00000030: a2f3 893e a249 aa3e 884c 9f3e 288f 033f
00000040: 5648 223e cae3 17bd 6759 0c3f 2837 593f
00000050: 4456 303e deb5 053e 8646 f03e 1b6f fb3e
00000060: c9c3 483e e02d f43e f6e3 153f 693b 2e3e
00000070: 5b15 443e 3649 423e 0a2a a63e 42b1 7abe
00000080: bfe5 81bc 5b04 363f 9e19 b13e 28c7 fc3e
00000090: 5ee1 92bd dbf4 c5be 5a3a e93e 4870 723e
000000a0: 8772 003e 63f1 493e 742a 2b3f 8150 2c3f
000000b0: e05c 573f 726b 87bd efd1 af3e 9db4 853e
000000c0: fa25 f63e 463b d6bd 21ee b63d 3f69 073f
000000d0: 20ae de3e 6be9 073f ee19 e23e f7d9 283f
000000e0: 7cf5 093f 6dad d9bd 01e6 1b3f 56ea b93e
000000f0: 6515 2a3e 2813 2a3f 628c 223e 3bac 813f

sequential/conv1d_7/BiasAdd/ReadVariableOp f4 [32]
0.2744922 0.08033566 -0.2803581 -0.026933622 0.5730677 0.6517626 0.23431093 -0.20763949
0.1406533 -0.13106254 0.94986653 0.004039046 0.60735023 0.103961766 -0.15737365 0.43329388
0.010462939 0.31570247 0.99607867 0.39381182 0.91330105 0.24173878 0.29089123 -0.18123484
0.0054237763 0.24737726 0.4500238 0.021439979 0.113532975 0.23434052 0.9534431 0.06733286
00000000: 3e8a 8c3e 0687 a43d 198b 8fbe e6a3 dcbc
00000010: 91b4 123f ead9 263f 34ef 6f3e 729f 54be
00000020: 6b07 103e 4235 06be 742a 733f f959 843b
00000030: 4e7b 1b3f e8e9 d43d 8f26 21be b2d8 dd3e
00000040: bf6c 2b3c c1a3 a13e 03ff 7e3f b4a1 c93e
00000050: 19ce 693f 5f8a 773e b2ef 943e a095 39be
00000060: efb9 b13b 7750 7d3e 8569 e63e e5a2 af3c
00000070: fa83 e83d f6f6 6f3e d914 743f cfe5 893d

sequential/conv1d_8/BiasAdd/ReadVariableOp f4 [16]
-0.2644167 -0.36059317 -0.9240089 -0.90380734 -0.15174313 -0.13931875 -0.035103813 -0.24394318
-0.12548403 -0.024182098 -0.45235318 0.41798612 -0.27188686 0.0034423773 -0.044314053 0.2713423
00000000: a061 87be ab9f b8be d98b 6cbf eb5f 67bf
00000010: 8d62 1bbe 93a9 0ebe 04c9 0fbd 3ecc 79be
00000020: e37e 00be 8919 c6bc d69a e7be 4702 d63e
00000030: c134 8bbe 8299 613b a782 35bd 61ed 8a3e

sequential/conv1d/Conv1D f4 [8, 1, 3, 12]
-0.27213067 -0.05222717 -0.1773993 0.10111484 0.23164049 0.2511519 -0.2009778 0.20883635
-0.062571615 0.04969868 -0.09960498 0.073207766 0.65665466 0.32129976 0.28241092 0.25329268
0.76927525 -0.28461817 0.21333809 -1.4378247 -0.48516786 0.06826758 0.15174648 -0.46923092
-0.1997243 -0.0576638 -0.0950602 0.07608256 -0.21298131 -0.079502076 -0.2887123 -0.15236716
-0.17918327 0.23738971 -0.11776014 -0.28538933 0.23863861 0.08477697 -0.04790753 -0.035583586
0.26039597 -0.2824384 -0.21081385 0.1867949 0.05950576 -0.11295366 -0.20264229 -0.30875066
-0.37133676 -0.3008314 1.6351138 -0.5352504 -0.3766405 -1.0538503 0.6633356 0.5026947
-0.42045152 -0.38424993 -0.2401419 -0.033669055 0.0980992 -0.2907747 -0.039552063 0.10459149
-0.10680832 -0.18699235 0.21623954 0.1258085 -0.04673031 0.0691385 -0.036423415 0.043875486
0.051287234 -0.26712975 -0.12803695 -0.083908886 0.1832695 0.23061416 0.012686491 -0.043663263
-0.28955677 0.06261858 0.17326638 0.10981068 -0.00056278746 0.1596443 -0.7268227 0.08666758
0.9927275 1.4216198 1.2366934 0.34458524 -0.6690959 -0.25328833 -0.7274528 -0.3913026
0.00014227629 0.03503126 0.12543389 -0.10142124 0.30725846 -0.28742212 0.20323542 0.09716129
0.1651099 0.06916118 -0.26708898 -0.033642113 -0.04864037 -0.14081234 -0.18209675 0.12334469
-0.23652454 0.022445112 -0.27284792 -0.10094428 -0.2706222 -0.13413796 -0.16692404 0.026289344
0.29650953 0.43176806 1.2955862 0.07319236 -0.55787426 0.4450068 0.6019017 0.05484392
0.27960345 -0.58819854 -0.13543051 0.14444633 -0.13789426 -0.3066862 0.1010555 -0.3010066
0.0014876127 -0.20788243 -0.0999812 -0.28771287 -0.3147669 -0.21035162 0.07238868 0.18768206
-0.065090686 0.2789128 -0.22619721 -0.036461353 -0.26091453 -0.26150894 0.3105906 0.024944007
-0.2583309 -0.090510204 -0.23763472 -0.20525622 -0.16937466 0.30340353 -0.40902397 -0.17311603
-0.15025991 -1.1198388 0.16018382 0.8103897 0.97396314 1.1237614 0.13069257 -0.11010588
0.011109769 -0.079294205 -0.16242486 -0.15050475 -0.118579224 -0.16112378 -0.2997165 0.047008514
0.06330949 0.27612922 -0.23774171 -0.17251892 -0.11225611 -0.25775498 0.18876693 0.30648556
-0.24879396 -0.10937551 -0.14823584 -0.23865497 0.011509061 0.18200001 0.22631797 0.22174987
0.07223957 1.5898267 -0.26627403 -0.91761374 -0.0076713967 -0.18859704 -0.39454764 -0.3753635
-0.47146225 -0.42118302 -0.67026937 -0.34631568 -0.19078408 -0.07675138 0.15274858 0.114331186
0.08586848 -0.06251848 -0.05241552 -0.104074374 -0.23724774 -0.081091166 0.27197018 0.29569325
0.29823968 -0.1683208 0.23255959 0.23714134 0.25586888 -0.31481048 0.17721939 -0.2722067
0.0318411 -0.16685332 -0.058759153 0.11354768 0.16339493 0.3928782 0.75159985 0.25925705
0.34282085 0.020505916 -1.395594 -0.58925307 -1.0777642 0.4150296 0.53306746 0.6987675
0.03803423 0.1534389 0.28593406 -0.24687004 0.12918642 -0.2946567 0.12293205 0.08142713
0.28120396 0.24540958 -0.23820078 0.19736364 -0.15863599 0.09653634 -0.19773464 0.13395444
00000000: b654 8bbe 28ec 55bd 29a8 35be 4c15 cf3d
00000010: 2a33 6d3e fb96 803e 20cd 4dbe 32d9 553e
00000020: 8c25 80bd d890 4b3d b2fd cbbd f4ed 953d
00000030: 851a 283f 6781 a43e 2a98 903e 94af 813e
00000040: 39ef 443f 79b9 91be 4d75 5a3e a40a b8bf
00000050: ec67 f8be dfcf 8b3d 6e63 1b3e 093f f0be
00000060: 8784 4cbe e030 6cbd ecae c2bd 2cd1 9b3d
00000070: c617 5abe fcd1 a2bd 19d2 93be 2306 1cbe
00000080: d27b 37be 4a16 733e 3a2c f1bd 8d1e 92be
00000090: ae5d 743e 8c9f ad3d b03a 44bd 18c0 11bd
000000a0: 9f52 853e c49b 90be 96df 57be 2a47 3f3e
000000b0: 50bc 733d 4054 e7bd 7681 4fbe 9114 9ebe
000000c0: da1f bebe 9306 9abe 694b d13f 2c06 09bf
000000d0: 06d7 c0be 91e4 86bf 5dd0 293f 9ab0 003f
000000e0: 6c45 d7be 68bc c4be c2e7 75be 90e8 09bd
000000f0: 3ce8 c83d 6ce0 94be 5801 22bd 1034 d63d
00000100: 52be dabd ec7a 3fbe e66d 5d3e f2d3 003e
00000110: 4868 3fbd 7c98 8d3d b830 15bd c8b6 333d
00000120: 9012 523d 3bc5 88be 1e1c 03be 6cd8 abbd
00000130: 00ab 3b3e 1e26 6c3e 00db 4f3c 40d8 32bd
00000140: c940 94be 2c3e 803d be6c 313e 6ce4 e03d
00000150: 0788 13ba cc79 233e 0d11 3abf c67e b13d
00000160: 6423 7e3f a3f7 b53f f84b 9e3f 7a6d b03e
00000170: de49 2bbf 02af 81be 593a 3abf d058 c8be
00000180: 0030 1539 f07c 0f3d be71 003e f0b5 cfbd
00000190: fb50 9d3e fe28 93be f21c 503e 80fc c63d
000001a0: 9212 293e 60a4 8d3d e3bf 88be 50cc 09bd
000001b0: 203b 47bd 1c31 10be 9277 3abe 249c fc3d
000001c0: 7d33 72be d0de b73c b9b2 8bbe e0bb cebd
000001d0: fe8e 8abe 765b 09be 23ee 2abe c05c d73c
000001e0: 19d0 973e b410 dd3e c5d5 a53f e0e5 953d
000001f0: d9d0 0ebf eed7 e33e 3b16 1a3f 05a4 603d
00000200: 2f28 8f3e 2e94 16bf 4cae 0abe bde9 133e
00000210: 2734 0dbe f905 9dbe 30f6 ce3d 891d 9abe
00000220: 00fc c23a 22df 54be f2c2 ccbd 1a4f 93be
00000230: 2129 a1be 6a66 57be 8440 943d ba2f 403e
00000240: 444e 85bd a9cd 8e3e 3ea0 67be 8058 15bd
00000250: 9796 85be 80e4 85be bb05 9f3e 6057 cc3c
00000260: f343 84be 6a5d b9bd 8456 73be b02e 52be
00000270: 8d70 2dbe b557 9b3e 976b d1be 5445 31be
00000280: bcdd 19be e156 8fbf 3a07 243e b375 4f3f
00000290: a655 793f 6ad7 8f3f 46d4 053e 317f e1bd
000002a0: c005 363c 0065 a2bd b452 26be eb1d 1abe
000002b0: aad9 f2bd a2fd 24be 7174 99be 008c 403d
000002c0: 68a8 813d cf60 8d3e 9072 73be cda8 30be
000002d0: 88e6 e5bd 76f8 83be 1e4c 413e adeb 9c3e
000002e0: d8c3 7ebe 4400 e0bd 23cb 17be f861 74be
000002f0: 8090 3c3c 365e 3a3e e6bf 673e 6612 633e
00000300: 57f2 933d 717f cb3f 1255 88be bce8 6abf
00000310: 5760 fbbb 951f 41be 2602 cabe a52f c0be
00000320: 8063 f1be 4da5 d7be c696 2bbf 4a50 b1be
00000330: e75c 43be d42f 9dbd 206a 1c3e 7826 ea3d
00000340: d0db af3d b009 80bd a8b1 56bd f224 d5bd
00000350: 12f1 72be 2013 a6bd ad3f 8b3e 1b65 973e
00000360: dfb2 983e 4a5c 2cbe 1a24 6e3e 2ed5 723e
00000370: 3f01 833e d72e a1be 0079 353e ad5e 8bbe
00000380: d06b 023d 99db 2abe 70ad 70bd b08b e83d
00000390: 0051 273e 5527 c93e d968 403f 57bd 843e
000003a0: 3786 af3e 06fc a73c d3a2 b2bf 4ad9 16bf
000003b0: 2df4 89bf c27e d43e 1c77 083f 6de2 323f
000003c0: c8c9 1b3d 161f 1d3e f365 923e 80cb 7cbe
000003d0: 7249 043e 3edd 96be ccc3 fb3d 44c3 a63d
000003e0: f7f9 8f3e a64c 7b3e e8ea 73be b219 4a3e
000003f0: 7971 22be d8b4 c53d f37a 4abe 5a2b 093e

sequential/conv1d_1/Conv1D f4 [16, 1, 3, 8]
-0.085666224 0.029527456 0.18623352 0.065262765 -0.10746272 0.05004832 -0.26103672 0.2718228
-0.3620471 0.4401987 -1.1382391 0.77555424 0.11033906 0.5352947 -0.11800577 -0.42840686
-0.11641216 -0.087968916 -0.05497107 -0.17646311 -0.23737803 0.19289953 0.1286417 -0.02833429
0.26175582 0.13644755 0.00308159 0.2397893 -0.15005498 0.22757858 0.06254864 -0.027121872
0.34346783 -0.87463284 -0.24920289 -1.0291455 -0.06952738 -0.11546753 0.42602766 0.579359
0.10809019 -0.16633847 -0.020215154 -0.15522762 0.08177757 0.17853883 -0.22047049 -0.08710289
0.003058821 0.28539932 0.1803841 0.2618029 0.25206208 -0.12815827 0.14368972 -0.26661676
-0.18684421 0.6942514 0.3274206 0.30857337 -0.8469562 -1.1005516 0.19229509 0.32157946
0.042972922 -0.08927357 0.27513033 -0.2198636 -0.054187775 0.07216418 -0.21506804 0.18259656
-0.2852249 -0.013996005 -0.23515889 -0.17821844 0.095207214 -0.09177077 -0.16169226 -0.047823757
0.06915153 -0.22284229 -1.2886891 -1.2829548 0.10117311 -0.47033238 -0.7423054 -0.11636141
-0.11702594 -0.09787986 0.2523451 0.2008656 0.09623617 0.05631745 0.27018875 0.19289625
0.06892881 0.086366594 0.05152753 -0.18480682 -0.25660348 -0.21779016 -0.11670226 -0.1886583
0.23152757 0.41842052 -1.0247796 -0.60175747 -0.4653612 -1.2884368 -0.52103144 -0.10352852
-0.06925306 0.074723184 -0.004760027 -0.048993856 -0.23266327 0.26449716 -0.0013850331 0.28682828
0.28401816 0.24660373 0.26243252 -0.070464805 0.20501846 -0.081907734 0.08542037 0.02676192
1.0733985 -0.43933383 0.3052958 0.6861854 0.05477673 -0.52112824 0.24953239 0.46137217
0.15574807 -0.04001206 0.26841122 0.09193817 0.25231487 -0.18441673 0.040524453 0.11071727
-0.06873913 -0.07966374 0.16853249 0.13677028 0.16257241 0.19266987 -0.1703324 -0.111512125
1.4688073 -0.330149 -1.1407931 -0.2268834 -0.008291712 -0.22613451 0.6266835 -0.25320816
0.15533996 -0.075092286 0.0064258277 0.22290945 -0.09141047 -0.12359266 -0.055581763 0.14224795
-0.28770366 0.27408683 0.11150023 -0.2402826 -0.24978149 0.20927718 -0.005532801 -0.22298111
0.7661134 0.51883054 -1.4017246 -0.2481147 0.8984136 0.6759326 0.36329675 0.18709031
-0.005530268 0.26614088 -0.13621023 0.031111896 0.18023446 -0.14134972 -0.118527785 0.067798436
-0.28718325 0.1317257 0.17860669 -0.25108084 -0.0074740946 -0.13506064 -0.074768186 -0.117498234
-0.04766275 0.1523917 -0.47576532 0.12527157 1.012447 -0.87477994 0.33781993 1.2956288
-0.181843 -0.25057134 0.26027632 0.28625286 0.2743804 -0.043061987 -0.14073132 0.21455121
-0.108023226 -0.02767852 0.11045119 0.20402476 -0.04112868 -0.16403687 -0.22226822 -0.13699202
-0.7868937 -0.3215976 0.6113046 -0.13084802 0.29887384 0.12568444 -0.8968462 0.4821852
-0.28213072 0.17576268 0.17681178 -0.23058392 -0.20402491 -0.03885001 0.13020232 -0.1949749
-0.10818036 0.20087904 0.08871099 0.23113257 -0.0338203 0.08269146 0.05732113 0.0547207
-0.6552815 -1.0062604 -0.5822976 -0.7078836 0.1382623 -0.6448781 0.20230229 1.1797663
00000000: c671 afbd 90e3 f13c 00b4 3e3e 7ca8 853d
00000010: 6a15 dcbd 78ff 4c3d 9ba6 85be 5c2c 8b3e
00000020: 3d5e b9be b961 e13e d2b1 91bf b98a 463f
00000030: 72f9 e13d 1309 093f 02ad f1bd 2558 dbbe
00000040: 8069 eebd 0c29 b4bd 5829 61bd bfb2 34be
00000050: 3a13 73be 7487 453e a6ba 033e 501d e8bc
00000060: dc04 863e e8b8 0b3e 80f4 493b 548b 753e
00000070: 03a8 19be 5c0a 693e 8019 803d b02e debc
00000080: 04db af3e f0e7 5fbf 0b2f 7fbe 0abb 83bf
00000090: 5f64 8ebd 3e7a ecbd 4c20 da3e df50 143f
000000a0: 645e dd3d a254 2abe 409a a5bc fdf3 1ebe
000000b0: 007b a73d e2d2 363e 04c3 61be 0063 b2bd
000000c0: 8076 483b dc1f 923e 9cb6 383e 080b 863e
000000d0: 480e 813e ec3b 03be 6623 133e fe81 88be
000000e0: 1754 3fbe 76ba 313f aca3 a73e 54fd 9d3e
000000f0: 1fd2 58bf e0de 8cbf 01e9 443e 10a6 a43e
00000100: 6004 303d 10d5 b6bd e2dd 8c3e ec23 61be
00000110: 00f4 5dbd d0ca 933d cc3a 5cbe 98fa 3a3e
00000120: 0009 92be 804f 65bc 7ecd 70be e57e 36be
00000130: 00fc c23d 50f2 bbbd a892 25be d8e2 43bd
00000140: 519f 8d3d c530 64be c4f3 a4bf dd37 a4bf
00000150: d933 cf3d 68cf f0be ba07 3ebf e44e eebd
00000160: 4cab efbd 3c75 c8bd 6033 813e b6af 4d3e
00000170: 7817 c53d 20ad 663d 2e56 8a3e 9886 453e
00000180: 8c2a 8d3d f8e0 b03d 880e 533d 003e 3dbe
00000190: 8861 83be 6204 5fbe 9801 efbd a42f 41be
000001a0: 9015 6d3e 373b d63e fa2b 83bf c70c 1abf
000001b0: d343 eebe 7feb a4bf 5162 05bf c306 d4bd
000001c0: 8cd4 8dbd 7808 993d 00fa 9bbb c8ad 48bd
000001d0: 483f 6ebe 2c6c 873e 008a b5ba 28db 923e
000001e0: d46a 913e b085 7c3e 8e5d 863e da4f 90bd
000001f0: 5cf0 513e 3ebf a7bd e0f0 ae3d d03b db3c
00000200: 1f65 893f 5df0 e0be bb4f 9c3e d9a9 2f3f
00000210: 905d 603d a968 05bf 6b85 7f3e f938 ec3e
00000220: 6c7c 1f3e b0e3 23bd 326d 893e 144a bc3d
00000230: 6a2f 813e bdd7 3cbe f8fc 253d bcbf e23d
00000240: 1ac7 8cbd be26 a3bd c893 2c3e 820d 0c3e
00000250: 6279 263e 404b 453e 9e6b 2ebe 7860 e4bd
00000260: e101 bc3f 4a09 a9be 8205 92bf 1f54 68be
00000270: f6d9 07bc ce8f 67be 546e 203f 80a4 81be
00000280: 7011 1f3e fcc9 99bd c08f d23b 6042 643e
00000290: 6a35 bbbd 261e fdbd b4a9 63bd 72a9 113e
000002a0: e54d 93be 1c55 8c3e 3c5a e43d a40c 76be
000002b0: b8c6 7fbe c24c 563e 804c b5bb 2955 64be
000002c0: 0220 443f 14d2 043f b66b b3bf c811 7ebe
000002d0: 6ffe 653f eb09 2d3f 0802 ba3e 9a94 3f3e
000002e0: 4037 b5bb 9e43 883e b27a 0bbe 60de fe3c
000002f0: 628f 383e fbbd 10be b2be f2bd e8d9 8a3d
00000300: af09 93be 1ae3 063e ace4 363e ab8d 80be
00000310: 40e9 f4bb 564d 0abe 1020 99bd eaa2 f0bd
00000320: 043a 43bd 920c 1c3e 8397 f3be 3147 003e
00000330: dd97 813f 94f1 5fbf bcf6 ac3e 2ad7 a53f
00000340: 0d35 3abe e34a 80be f042 853e bc8f 923e
00000350: 967b 8c3e c461 30bd df1b 10be 50b3 5b3e
00000360: 483b ddbd 10be e2bc 3c34 e23d deeb 503e
00000370: 8c76 28bd 48f9 27be 489a 63be a347 0cbe
00000380: de71 49bf 71a8 a4be 757e 1c3f 06fd 05be
00000390: fe05 993e 6cb3 003e b697 65bf fbe0 f63e
000003a0: 7073 90be 22fb 333e 260e 353e 311e 6cbe
000003b0: e8eb 50be 3021 1fbd c253 053e 80a7 47be
000003c0: aa8d ddbd 3cb3 4d3e 1cae b53d 04ae 6c3e
000003d0: 2887 0abd 245a a93d 90c9 6a3d d022 603d
000003e0: 87c0 27bf 24cd 80bf 7511 15bf dc37 35bf
000003f0: a294 0d3e bb16 25bf 5528 4f3e 9502 973f

sequential/conv1d_2/Conv1D f4 [32, 1, 3, 16]
0.14750168 0.15628812 0.04095249 -0.13338931 0.07098675 0.05153066 0.05815804 -0.038505375
0.10051355 0.020199373 0.027862102 -0.06532876 -0.047187075 0.08598021 0.0074064285 0.021089837
0.62630177 -1.5292375 0.091227725 -0.64405894 -0.7735463 0.03286009 0.038926017 -0.50217503
0.9572125 0.1843094 -1.214196 0.077438846 0.24884903 -0.2889223 -0.14232536 0.05505808
0.1940827 0.14404958 0.09470904 0.18656358 -0.020777345 0.145717 -0.0030913204 0.057584256
0.06363964 0.19286022 0.12598112 -0.0121438205 -0.04203129 0.11880502 -0.10194912 -0.103220984
-0.0063121617 -0.06186995 0.1946316 -0.050664872 0.021487743 -0.082200736 0.061849505 0.09947348
-0.0076509416 0.022795916 -0.1405623 0.18351495 -0.08413427 0.1970379 0.14250699 0.06829995
-0.76009893 -0.63707244 -0.57629085 -0.51594436 -0.2117222 -0.20322265 0.57885873 0.68264884
0.8262258 -1.047085 0.4156899 0.7623386 0.29368767 -0.4742888 0.21004018 -0.8257014
0.07412338 -0.05920826 0.01943326 -0.043603525 -0.1434938 -0.16663767 0.0005752444 -0.15162021
-0.102345124 -0.11523098 0.12603724 0.16056603 -0.02563636 -0.11764237 0.1762689 0.106377125
0.10660043 0.1840955 -0.14499521 -0.13901103 -0.037373275 0.004168868 -0.17798686 0.013716936
-0.039857388 -0.14290541 -0.068087265 0.17951715 -0.10314847 -0.07177189 -0.055436134 -0.062061995
-0.39045873 0.055933528 0.0574901 0.74007034 0.6597689 0.18619634 0.0701075 -0.52741164
0.5843507 0.27518487 0.18548131 -0.0903406 -0.52184474 -0.19783318 -0.22733295 0.56237334
-0.13612664 -0.09458853 0.16342413 0.0013483614 0.09057179 -0.11314457 0.068237245 -0.16497386
0.12771693 0.0731751 0.022812888 -0.13980868 0.14891526 0.07656798 -0.077056155 -0.07840428
0.08609569 0.032689855 0.07965487 -0.03853622 0.023824394 0.16706389 0.09512216 0.09715119
0.13760829 0.034338653 0.09829894 -0.114135 0.09338781 -0.057409376 0.12142569 0.02136612
-0.01265715 0.21416855 -0.26829687 -0.16826327 -0.38616785 -1.1434695 -0.90515894 -0.64136946
-1.1025649 0.70741796 0.049480204 0.43829182 0.44913444 -0.055281952 0.00030149583 -0.5250748
-0.1277694 0.0021546334 -0.08939055 0.1950936 -0.15153295 -0.17279649 -0.18622151 0.14524561
-0.123565875 -0.046145365 0.009475604 -0.19212116 0.07383832 0.011000395 -0.07110442 -0.09851143
-0.18307291 0.16767281 0.17899251 0.041033134 -0.16865365 -0.06201382 0.07094309 -0.17557931
0.09851727 0.0600501 -0.06298429 0.091958135 -0.066347465 -0.039224327 -0.024483144 0.107061
0.19377653 0.08166681 0.90853876 0.26065728 0.271927 0.6054416 -1.1239346 -0.96773416
0.10545718 -0.89168537 0.32024676 0.3261355 -0.0996488 -0.11278935 -0.581717 -0.04661101
0.039625153 0.012958705 -0.06415726 0.057305634 0.021686941 0.07061741 0.20327759 0.19633925
0.19367233 0.101885766 -0.03938508 0.021391287 0.19392589 0.03283523 0.17849389 0.16074324
0.113979936 0.11053547 0.20193312 -0.17254546 0.093645304 0.027462631 -0.12840031 -0.07830815
0.1014995 0.09073931 0.17095146 0.17058694 0.09459987 -0.08335555 -0.13352165 -0.09411953
00000000: ae0a 173e fe09 203e ccbd 273d 3597 08be
00000010: 8061 913d d011 533d 2037 6e3d d0b7 1dbd
00000020: 0cda cd3d 2879 a53c 103f e43c 16cb 85bd
00000030: 3c47 41bd 6416 b03d a0b1 f23b 98c4 ac3c
00000040: 5055 203f 0ebe c3bf 9ad5 ba3d 0ce1 24bf
00000050: 2107 46bf 4d98 063d e370 1f3d 8b8e 00bf
00000060: e10b 753f 9abb 3c3e c66a 9bbf 4298 9e3d
00000070: 48d2 7e3e a0ed 93be bdbd 11be 9584 613d
00000080: 9ebd 463e bc81 133e d0f6 c13d 860a 3f3e
00000090: 4035 aabc d636 153e c097 4abb 78dd 6b3d
000000a0: 8055 823d 267d 453e 3201 013e e0f6 46bc
000000b0: 0029 2cbd 0c50 f33d b3ca d0bd 8665 d3bd
000000c0: 40d6 cebb 586b 7dbd 824d 473e f885 4fbd
000000d0: 1007 b03c dc58 a8bd e855 7d3d c0b8 cb3d
000000e0: c0b4 fabb 80be ba3c 90ef 0fbe 58eb 3b3e
000000f0: 974e acbd 4ec4 493e 5aed 113e d8e0 8b3d
00000100: d895 42bf 2e17 23bf cc87 13bf ee14 04bf
00000110: b4cd 58be 9919 50be 1630 143f 13c2 2e3f
00000120: 8983 533f e206 86bf 4ed5 d43e 9f28 433f
00000130: 3b5e 963e fbd5 f2be c614 573e 2b61 53bf
00000140: 00ce 973d 5c84 72bd 8032 9f3c 9c99 32bd
00000150: 0af0 12be 11a3 2abe 00cc 163a 5442 1bbe
00000160: 529a d1bd 38fe ebbd e80f 013e 6c6b 243e
00000170: 5803 d2bc 7cee f0bd d67f 343e 40dc d93d
00000180: 5451 da3d 8883 3c3e a079 14be e858 0ebe
00000190: b814 19bd 009b 883b 3042 36be 00bd 603c
000001a0: 8041 23bd cc55 12be 5671 8bbd 58d3 373e
000001b0: 813f d3bd 24fd 92bd 0011 63bd b834 7ebd
000001c0: 35ea c7be 8e1a 653d bd7a 6b3d 4075 3d3f
000001d0: 9de6 283f 41aa 3e3e 8594 8f3d 7304 07bf
000001e0: 0298 153f 08e5 8c3e d0ee 3d3e 7e04 b9bd
000001f0: 9e97 05bf c894 4abe f8c9 68be b3f7 0f3f
00000200: c864 0bbe a2b7 c1bd a858 273e 80bb b03a
00000210: b47d b93d 57b8 e7bd f8bf 8b3d e8ee 28be
00000220: 3ac8 023e d4dc 953d 18e2 ba3c 022a 0fbe
00000230: 3e7d 183e accf 9c3d 9ecf 9dbd 6c92 a0bd
00000240: f052 b03d cce5 053d 1822 a33d 28d8 1dbd
00000250: 602b c33c cc12 2b3e 68cf c23d 34f7 c63d
00000260: 30e9 0c3e b0a6 0c3d f450 c93d 9cbf e9bd
00000270: 1c42 bf3d 1826 6bbd 08ae f83d 0008 af3c
00000280: ef5f 4fbc 004f 5b3e 355e 89be 354d 2cbe
00000290: cbb7 c5be 355d 92bf 7fb8 67bf ca30 24bf
000002a0: d920 8dbf 5819 353f c1ab 4a3d c967 e03e
000002b0: f3f4 e53e 546f 62bd 1612 9e39 4d6b 06bf
000002c0: fbd5 02be c034 0d3b 6512 b7bd 9ec6 473e
000002d0: 742b 1bbe 90f1 30be dab0 3ebe 44bb 143e
000002e0: 1b10 fdbd ec02 3dbd 903f 1b3c 69bb 44be
000002f0: 8c38 973d 003b 343c 329f 91bd 5cc0 c9bd
00000300: 7777 3bbe 6cb2 2b3e d049 373e 5c12 283d
00000310: 8bb3 2cbe 3402 7ebd 9c4a 913d 10cb 33be
00000320: 6cc3 c93d 18f7 753d e8fd 80bd 8c54 bc3d
00000330: 2ee1 87bd b0a9 20bd e090 c8bc cc42 db3d
00000340: 5b6d 463e ee40 a73d ff95 683f df74 853e
00000350: 043a 8b3e 38fe 1a3f 17dd 8fbf 6dbd 77bf
00000360: eff9 d73d 7e45 64bf 62f7 a33e 3bfb a63e
00000370: ac14 ccbd 1afe e6bd 68eb 14bf 30eb 3ebd
00000380: fc4d 223d c050 543c e264 83bd 50b9 6a3d
00000390: d0a8 b13c dc9f 903d 0028 503e 280d 493e
000003a0: 0a52 463e 7ca9 d03d 4052 21bd c83c af3c
000003b0: 8294 463e 3c7e 063d 1ac7 363e e099 243e
000003c0: 506e e93d 6c60 e23d 8ec7 4e3e c2af 30be
000003d0: 1cc9 bf3d 50f9 e03c 5f7b 03be 0660 a0bd
000003e0: f8de cf3d 88d5 b93d e60d 2f3e 58ae 2e3e
000003f0: 94bd c13d 51b6 aabd e6b9 08be bdc1 c0bd

sequential/conv1d_3/Conv1D f4 [64, 1, 3, 32]
0.1216144 0.1319632 -0.0724998 -0.07114256 0.11373028 -0.13554001 -0.02705139 -0.029592462
-0.027454115 0.046729147 0.13951689 0.028760776 -0.02447752 0.016045049 -9.10908e-05 0.0013646781
0.0046137124 0.052678734 0.12315193 0.09898065 -0.1367745 -0.027266704 -0.07061632 0.05363834
-0.09795171 0.06797421 0.11771333 -0.072464354 -0.095553145 0.011105239 -0.050422676 0.03957729
-0.6743531 -1.0149848 -0.1845249 0.17528845 0.03561743 0.30174136 0.252468 0.15119188
-0.844908 -0.5423521 0.41693437 -0.2704926 0.09188906 0.11940231 -0.09037939 -1.1760868
-0.13372889 0.24406537 0.18097207 -1.0526509 -0.42569473 0.38016984 0.18308547 -0.16197
-0.34530067 -0.36128774 -0.7099934 -0.27893195 -0.61059046 -0.74243647 0.37704325 0.08893256
0.029286936 0.05232969 0.115240395 0.13662389 0.12431982 -0.09858821 0.044668823 -0.06937797
-0.07709906 -0.048741505 0.06135285 0.12351623 0.058205456 -0.09759231 0.13204208 0.13103974
0.031725943 -0.034259968 -0.06913478 0.08294307 0.126308 0.03673303 0.012352079 0.14115202
0.07427439 -0.07189204 0.018915862 -0.036315747 -0.038394213 0.046462387 0.03292784 0.004576683
0.06845197 -0.12719472 0.042691678 0.09794022 -0.008721083 0.02049242 0.038701206 0.12098771
-0.032605574 -0.074456885 -0.061091386 -0.13392355 -0.018844351 0.08594531 -0.041889653 0.099639595
0.09339048 -0.09249568 -0.041179717 -0.019748002 0.036212236 -0.071543366 -0.060035154 -0.051061682
-0.08602092 -0.11503276 0.04471384 -0.11691628 -0.06296327 -0.045257144 0.04382141 -0.093866855
-0.2853627 0.8962093 -0.7953572 -0.008681401 -0.666654 -0.20643811 -0.48060137 -0.68848085
0.015003009 0.6227542 -1.2629023 0.15955433 -0.71155256 -1.813235 0.01488026 1.0812135
-0.43410853 -0.0043190396 -0.17971672 0.31909528 -0.29520473 -0.8110985 -0.2127939 -0.12707667
0.18479915 0.19874416 0.4260545 -1.1420022 -0.19443093 0.40581766 -0.77013606 -0.551682
-0.13815121 -0.09015247 -0.067534074 -0.057949707 -0.06737698 -0.12044379 -0.14378868 0.051546484
-0.08357231 0.109796375 0.041841984 -0.11603665 -0.08275999 0.07832794 0.11528987 0.0029129088
-0.04881856 -0.118122615 0.06839962 0.043925434 0.0696882 -0.09392494 0.07207239 -0.08490656
-0.043092206 0.012573212 0.046888933 -0.13550416 -0.11652545 -0.1294175 0.124355316 0.12909329
0.12152159 -0.06012869 0.089290336 0.116790056 -0.030542731 0.04219179 -0.021127298 -0.0062517375
-0.076770216 0.07828084 -0.10101999 -0.06442512 -0.11002278 0.09547885 -0.07258015 -0.10965453
0.03290613 0.12030038 0.046174377 0.07622959 0.009078905 0.056410417 0.030431956 0.048622683
-0.043248437 -0.05067599 0.10010801 0.038681254 0.07624401 0.03248179 -0.0033532828 0.071350515
-0.9789868 -0.6910582 -0.20964196 -0.026778556 -0.23855716 -1.1778601 -0.23507196 0.75160414
-0.8785146 -0.3105598 0.09407976 -0.014655327 -0.74258506 0.6556221 -0.2932272 0.14251707
-0.8653014 -0.24450892 0.100571245 -1.5214715 -0.21780662 -1.1068871 0.6340888 0.18261158
0.07673587 -0.26024142 -0.15851681 -1.7618912 -0.8318917 -0.22236468 0.70383006 -0.64693403
00000000: f810 f93d 5c21 073e c67a 94bd 31b3 91bd
00000010: 6ceb e83d 00cb 0abe e09a ddbc e46b f2bc
00000020: 74e7 e0bc 1067 3f3d 84dd 0e3e b89b eb3c
00000030: 1485 c8bc e870 833c 0008 bfb8 00df b23a
00000040: a02e 973b a8c5 573d 1437 fc3d 5eb6 ca3d
00000050: 9d0e 0cbe 6c5e dfbc 4a9f 90bd e0b3 5b3d
00000060: e89a c8bd 1036 8b3d b013 f13d 3168 94bd
00000070: 5eb1 c3bd c0f2 353c 0288 4ebd cc1b 223d
00000080: 68a2 2cbf 06eb 81bf 18f4 3cbe d17e 333e
00000090: 95e3 113d d87d 9a3e 7c43 813e 0bd2 1a3e
000000a0: e44b 58bf 96d7 0abf 6c78 d53e 027e 8abe
000000b0: 5530 bc3d 3389 f43d d418 b9bd 038a 96bf
000000c0: 3af0 08be 46ec 793e be50 393e 44bd 86bf
000000d0: a9f4 d9be 9fa5 c23e c27a 3b3e 77db 25be
000000e0: 40cb b0be b5fa b8be 21c2 35bf 2bd0 8ebe
000000f0: a84f 1cbf 5110 3ebf d00b c13e 4622 b63d
00000100: 28eb ef3c a857 563d 2803 ec3d 22e7 0b3e
00000110: 649b fe3d 9ee8 c9bd a8f6 363d 0a16 8ebd
00000120: 1de6 9dbd 2ca5 47bd 204d 7b3d 14f6 fc3d
00000130: d868 6e3d 7ade c7bd 0a36 073e 482f 063e
00000140: 10f3 013d 2e54 0cbd 8996 8dbd 0ede a93d
00000150: e256 013e 6075 163d 6060 4a3c 288a 103e
00000160: 2c1d 983d 223c 93bd 70f5 9a3c d2bf 14bd
00000170: 4043 1dbd 584f 3e3d 58df 063d 00f8 953b
00000180: 8c30 8c3d 553f 02be 78dd 2e3d e294 c83d
00000190: e0e2 0ebc b8df a73c 2885 1e3d 68c8 f73d
000001a0: 6c8d 05bd da7c 98bd f63a 7abd 4123 09be
000001b0: 785f 9abc 1804 b03d 7c94 2bbd d80f cc3d
000001c0: 8243 bf3d 606e bdbd 10ac 28bd 90c6 a1bc
000001d0: 4853 143d 5485 92bd 6ce7 75bd 0e26 51bd
000001e0: bc2b b0bd 4c96 ebbd dc25 373d cd71 efbd
000001f0: e3f2 80bd 8e5f 39bd 147e 333d 443d c0bd
00000200: 0f1b 92be f96d 653f 889c 4bbf 6f3c 0ebc
00000210: d6a9 2abf 8364 53be 6211 f6be 4840 30bf
00000220: 2ecf 753c d26c 1f3f c8a6 a1bf 3662 233e
00000230: 4f28 36bf 1618 e8bf 56cc 733c 3465 8a3f
00000240: 7943 debe bb86 8dbb a907 38be 7560 a33e
00000250: 1325 97be 27a4 4fbf a5e6 59be 6320 02be
00000260: fd3b 3d3e 9783 4b3e d123 da3e 212d 92bf
00000270: e718 47be 55c7 cf3e a327 45bf 083b 0dbf
00000280: 8377 0dbe dca1 b8bd 4e4f 8abd ac5c 6dbd
00000290: f1fc 89bd 3cab f6bd 573d 13be 6822 533d
000002a0: f627 abbd ecdc e03d 8062 2b3d a0a4 edbd
000002b0: 127e a9bd 666a a03d 181d ec3d 80e6 3e3b
000002c0: f8f5 47bd 45ea f1bd 1a15 8c3d 28eb 333d
000002d0: b0b8 8e3d b85b c0bd b09a 933d 7ee3 adbd
000002e0: 7481 30bd e0ff 4d3c 9c0e 403d 9ac1 0abe
000002f0: e5a4 eebd 0586 04be 00ae fe3d 0831 043e
00000300: 50e0 f83d 8049 76bd dadd b63d a02f ef3d
00000310: c034 fabc 4cd1 2c3d 2813 adbc 60db ccbb
00000320: b439 9dbd b451 a03d 92e3 cebd 51f1 83bd
00000330: a053 e1bd 6a8a c33d e7a4 94bd 8e92 e0bd
00000340: 94c8 063d 0c60 f63d 5821 3d3d 421e 9c3d
00000350: b0bf 143c 9c0e 673d 704c f93c 9428 473d
00000360: 4625 31bd a091 4fbd 6e05 cd3d 3c70 1e3d
00000370: d225 9c3d a00b 053d c0c2 5bbb 3820 923d
00000380: e19e 7abf 31e9 30bf 62ac 56be b45e dbbc
00000390: 5448 74be 1fc4 96bf b4b6 70be 2169 403f
000003a0: 55e6 60bf b201 9fbe e4ac c03d e61c 70bc
000003b0: 0e1a 3ebf dad6 273f e021 96be ffef 113e
000003c0: 6484 5dbf 8c60 7abe 4cf8 cd3d 94bf c2bf
000003d0: b308 5fbe 7aae 8dbf a553 223f 88fe 3a3e
000003e0: b227 9d3d 5d3e 85be 3b52 22be a785 e1bf
000003f0: dbf6 54bf 91b3 63be 352e 343f 789d 25bf

sequential/conv1d_4/Conv1D f4 [128, 1, 3, 64]
-0.06824988 -0.08890051 -0.095526904 -0.037515923 -0.027105615 0.059291705 0.036544576 0.07382177
0.016446836 -0.0028072074 -0.08579431 -0.0763488 -0.057724793 -0.058904164 0.010467738 -0.092551984
-0.08657091 0.03930609 -0.017598614 -0.0066916347 0.0064543635 -0.003994927 0.08504078 -0.068124875
-0.017634317 0.017811947 0.06319027 0.098686874 -0.059988197 -0.0878546 0.0734929 0.08990207
-0.024061449 -0.035097733 -0.058665138 -0.083931945 0.013463385 -0.026482873 0.034947738 0.092329726
-0.04239413 -0.024514005 0.02938646 -0.048167836 0.04706298 0.029260024 0.06486826 0.008414596
-0.07366258 0.0245357 0.01833412 -0.07974598 -0.06777343 0.07329011 0.06656343 0.0544724
0.06808244 -0.08150259 -0.09174737 0.05755505 0.098520815 -0.068561494 0.05945909 0.08778381
-0.33775896 0.7408044 0.9272977 0.2601221 -0.15074177 -0.26176304 -0.07622097 -0.09949866
-0.060971867 -0.035639018 -0.30109033 0.16758451 -0.19733292 0.028507303 -0.72337997 -0.4432727
0.67635393 -0.03559032 -0.25361314 -0.12829073 -0.039184175 -0.6513288 -0.13111521 -0.7468539
-0.08028727 -0.17758338 0.15167442 -0.66703486 -0.35407943 -0.09333282 0.71290916 0.1631376
0.16326566 0.21552534 -0.15410009 0.2324062 -0.07306489 -0.41567883 -0.17874014 -0.24202937
0.78436357 -0.45638067 0.14635302 0.0380971 0.748899 0.32612127 0.5263505 0.76015455
0.09487682 -0.5738399 -0.4260346 0.06145877 1.0355543 -1.2036234 -0.2915373 -1.1995168
-0.012446732 0.24209721 -0.47988445 0.16745308 0.21041267 -0.32130685 -0.48452443 0.7155522
0.062068418 -0.010352902 -0.061967436 0.08292201 0.0864009 0.045161024 0.021462925 0.03292796
0.027765691 -0.05262218 0.06607711 -0.036175586 -0.0024054125 0.073991805 -0.017392732 0.0032863393
0.032504782 0.09079485 0.004642755 0.030321524 -0.08836619 0.095884725 -0.001066342 -0.005715281
0.024499476 0.09588991 -0.008469179 -0.09273483 0.09207933 0.04203643 0.021838069 0.068222806
-0.020514451 -0.021248102 -0.055417273 0.0014127269 -0.09065969 0.04446049 -0.01973717 -0.048436843
-0.017139904 -0.09935232 -0.05534257 -0.01937119 -0.09952796 0.01843255 -0.0762867 0.06057033
-0.09235598 0.049390286 -0.058819048 0.07504684 -0.09229726 -0.0039426833 0.045111284 0.015870966
0.0033671483 -0.093252674 -0.008519866 -0.05858817 0.029930294 0.029456913 -0.08822863 -0.060053363
-0.010868311 -0.0075848997 0.07989775 -0.024900854 -0.07395609 0.022479236 -0.1005059 -0.037568778
-0.09272806 -0.0606782 -0.045810897 0.08572036 -0.0071417093 0.08996713 -0.026680365 -0.06677965
0.051181957 -0.07348677 0.027667403 -0.0013184845 0.06654629 0.06469081 -0.077848814 -0.008807316
-0.05740055 -0.07745025 0.028655827 0.09918328 -0.022588685 0.009796858 -0.08498424 -0.04213503
-0.05184081 0.097245365 -0.060599603 0.018118232 -0.044295914 -0.01795274 -0.08534144 0.014220618
0.09982975 -0.024763957 0.028833106 -0.016973808 -0.063344106 0.0006252974 -0.052888267 -0.0520473
0.08705446 -0.071810454 0.09451257 -0.05697423 0.03389834 0.0547764 0.087935776 0.059406996
-0.015406415 0.07674728 -0.07680973 0.00013317913 0.02857332 0.022830613 -0.049268756 0.015712649
00000000: 98c6 8bbd 7811 b6bd 9ca3 c3bd 4caa 19bd
00000010: 980c debc dcdb 723d c4af 153d de2f 973d
00000020: 84bb 863c 20f9 37bb edb4 afbd c25c 9cbd
00000030: d570 6cbd 7e45 71bd e080 2b3c e58b bdbd
00000040: 174c b1bd 6cff 203d f82a 90bc 8045 dbbb
00000050: 207f d33b e0e7 82bb dc29 ae3d 0e85 8bbd
00000060: d875 90bc 5cea 913c e669 813d 581c ca3d
00000070: 2fb6 75bd 1ded b3bd 7283 963d 941e b83d
00000080: 841c c5bc a4c2 0fbd db4a 70bd 83e4 abbd
00000090: 8895 5c3c 9cf2 d8bc 5c25 0f3d 5e17 bd3d
000000a0: 78a5 2dbd 98d1 c8bc e0bb f03c a34b 45bd
000000b0: 1cc5 403d b8b2 ef3c a6d9 843d 60dd 093c
000000c0: 68dc 96bd 18ff c83c 7031 963c dc51 a3bd
000000d0: cccc 8abd 2019 963d 6852 883d 741e 5f3d
000000e0: ce6e 8b3d d4ea a6bd 0ce6 bbbd d8be 6b3d
000000f0: 48c5 c93d f869 8cbd 608b 733d 00c8 b33d
00000100: beee acbe 5ba5 3d3f 6263 6d3f b92e 853e
00000110: 0d5c 1abe ce05 86be bd19 9cbd f4c5 cbbd
00000120: a3bd 79bd 38fa 11bd 8328 9abe 469b 2b3e
00000130: a411 4abe 2688 e93c 6e2f 39bf a4f4 e2be
00000140: 8825 2d3f 28c7 11bd 95d9 81be a55e 03be
00000150: 967f 20bd 7cbd 26bf 1143 06be d131 3fbf
00000160: a76d a4bd 6bd8 35be 8a50 1b3e ccc2 2abf
00000170: e649 b5be 4725 bfbd 3781 363f 8b0d 273e
00000180: 1d2f 273e adb2 5c3e 6acc 1dbe e4fb 6d3e
00000190: 0ca3 95bd dbd3 d4be a807 37be 8cd6 77be
000001a0: 0dcc 483f baaa e9be 91dd 153e b40b 1c3d
000001b0: d8b7 3f3f 5ef9 a63e e8be 063f 7d99 423f
000001c0: c74e c23d 2ce7 12bf 3521 dabe 31bc 7b3d
000001d0: 0b8d 843f 5510 9abf 6144 95be c489 99bf
000001e0: 61ed 4bbc 55e8 773e 6ab3 f5be d278 2b3e
000001f0: 6b76 573e 5582 a4be 9613 f8be 6e2e 373f
00000200: 743b 7e3d 389f 29bc 91d1 7dbd 04d3 a93d
00000210: f4f2 b03d c4fa 383d 04d3 af3c 78df 063d
00000220: e074 e33c 5b8a 57bd 7053 873d da2c 14bd
00000230: 20a4 1dbb 0489 973d 347b 8ebc a05f 573b
00000240: bc23 053d a6f2 b93d 4022 983b d864 f83c
00000250: 55f9 b4bd 365f c43d 80c4 8bba 4047 bbbb
00000260: 20b3 c83c ee61 c43d 50c2 0abc c2eb bdbd
00000270: 1694 bc3d 642e 2c3d c0e5 b23c 66b8 8b3d
00000280: ec0d a8bc 8010 aebc 39fd 62bd 402b b93a
00000290: caab b9bd 341c 363d d8af a1bc b665 46bd
000002a0: fc68 8cbc 3b79 cbbd e4ae 62bd 54b0 9ebc
000002b0: 51d5 cbbd dcff 963c 343c 9cbd 9818 783d
000002c0: 2225 bdbd 784d 4a3d 3eec 70bd 28b2 993d
000002d0: 5906 bdbd a031 81bb 9cc6 383d d403 823c
000002e0: 60ab 5c3b 42fb bebd e896 0bbc 26fa 6fbd
000002f0: 6030 f53c a04f f13c 36b1 b4bd 84fa 75bd
00000300: 0011 32bc c08a f8bb 6ea1 a33d e0fc cbbc
00000310: 4a76 97bd 6026 b83c 0ad6 cdbd b8e1 19bd
00000320: 36e8 bdbd b489 78bd 35a4 3bbd 288e af3d
00000330: 0005 eabb b040 b83d c890 dabc c5c3 88bd
00000340: 2ca4 513d 3b80 96bd c0a6 e23c 00d1 acba
00000350: 6c49 883d 9e7c 843d 336f 9fbd 904c 10bc
00000360: d71c 6bbd 3d9e 9ebd a0bf ea3c 9a20 cb3d
00000370: e80b b9bc 0083 203c 380c aebd c895 2cbd
00000380: 0757 54bd 9428 c73d 4a37 78bd b06c 943c
00000390: a26f 35bd a011 93bc 7ec7 aebd 98fd 683c
000003a0: 8a73 cc3d c8dd cabc 6833 ec3c a80c 8bbc
000003b0: 8eba 81bd 00eb 233a 5ea1 58bd 8d2f 55bd
000003c0: 9c49 b23d 5c11 93bd ce8f c13d cf5d 69bd
000003d0: fcd8 0a3d 385d 603d ac17 b43d c054 733d
000003e0: 306b 7cbc ae2d 9d3d 6b4e 9dbd 00a6 0b39
000003f0: 9812 ea3c 4407 bb3c 09ce 49bd d0b7 803c

sequential/conv1d_5/Conv1D f4 [128, 1, 3, 128]
-0.04750765 0.03794559 0.06885221 -0.02477809 0.0121634975 0.07318718 -0.067512214 -0.0012808666
-0.067451015 0.048441358 -0.059190124 -0.011085652 0.05685038 0.02100373 0.014902897 0.0131306425
0.026187204 0.019752964 -0.04204976 -0.05449383 0.0585343 0.055019923 -0.009297214 0.08757829
-0.07794457 0.078399874 -0.010129571 0.019174352 0.01806797 -0.004832074 0.0658628 0.05607275
0.048479743 0.08059972 -0.042864442 0.022155523 0.07441262 -0.08071041 0.030559517 0.06558705
-0.06208574 0.06411379 -0.07995548 -0.029873729 -0.009510517 -0.020322725 -0.065092795 -0.055440363
-0.02312275 -0.029077847 -0.061762474 -0.004308842 0.026955627 -0.07443761 0.040107258 0.016622692
-0.022963203 0.06997321 0.0019860193 0.024372637 0.03891673 -0.004031807 -0.05301161 -0.008938819
-0.08163368 -0.0013933778 -0.0883769 -0.0063296556 -0.045034327 0.023314498 0.015280336 0.07248256
0.0364507 -0.07945808 -0.016649649 -0.036193542 0.008906722 0.023354053 -0.085846975 -0.047385238
0.05423244 -0.023492359 0.061568685 -0.03170703 0.049531393 0.057215594 0.006980993 0.03609205
0.00051056594 0.017796904 0.082844265 0.039456107 0.08576397 -0.013033383 0.00406003 -0.018137053
-0.05221537 -0.062854245 -0.027213208 -0.08221453 -0.035477404 0.04245303 -0.033470772 -0.0793406
-0.053769622 -0.0118981 -0.008868262 0.041238703 0.027174689 0.068674944 0.0004903376 -0.0468046
-0.059437953 0.02374579 0.06989119 0.0028312951 -0.07098172 0.06524054 0.017266467 0.027486913
0.05245594 0.016351841 0.05030658 0.07058031 0.059092514 0.061803587 0.010426581 -0.027973093
-0.42254305 -0.3330406 0.18952939 0.29742083 0.07089404 0.0925072 0.26713243 -0.16140018
-0.003996626 0.21046808 -0.2402407 -1.1503043 -0.9304157 0.053826995 -0.27847332 0.086865775
0.055881567 -0.03620099 0.7740043 0.9623463 -0.023863062 0.6885275 0.14504695 -0.003679929
-0.03366742 0.4115549 0.34425095 -0.22258033 -0.3775522 0.5820192 0.7395918 0.35845244
-0.05638568 0.2051586 -0.319815 0.4562471 1.0055475 -0.5596643 0.3346434 0.2236821
-0.5123511 0.2513856 -0.670551 -0.111955725 -0.057608373 -0.45882636 -0.29771578 0.12391674
0.040326364 -0.19401251 -0.22818196 0.20104872 -0.40277517 0.93368137 -0.0680364 -0.3293537
-0.18407221 -0.05266182 -0.094563186 0.23180495 -0.4693836 0.5713923 0.9004241 0.8485206
-0.5666035 -0.42032513 0.0045057796 -0.078967236 0.28669003 -0.3091191 0.38035545 -0.1397751
-0.25003427 0.13885032 -0.28144282 0.13558243 -0.037910294 0.38535824 -0.16495986 0.15807696
0.64766705 0.9326163 0.5391517 -0.57876843 -0.255792 -0.17780884 -0.008075964 -0.0123766465
0.13730358 -0.16734983 -0.54539466 0.99095505 0.3133403 -0.31662732 0.31002805 -0.9871572
0.20483603 0.4144753 0.62079054 0.19973508 -0.54142344 0.31622112 -0.6918445 -0.25956333
-0.16652027 1.0890523 -0.20698005 0.8660516 0.69292927 -0.47598407 0.87171566 0.30579072
-0.3828604 0.17851655 -0.10249867 0.21165943 -0.09995313 -0.26087868 -0.5064205 -0.25288305
0.88916504 -0.11176177 1.1641515 -0.18150413 0.15529573 -0.7599783 -0.4984988 0.65775776
00000000: 6297 42bd d66c 1b3d 6302 8d3d 6cfb cabc
00000010: 6849 473c 29e3 953d d843 8abd c0e2 a7ba
00000020: c223 8abd 726a 463d 5871 72bd 98a0 35bc
00000030: f2db 683d 0410 ac3c 482b 743c e821 573c
00000040: 8c86 d63c f8d0 a13c 5f3c 2cbd ec34 5fbd
00000050: aac1 6f3d 925c 613d 5853 18bc 3f5c b33d
00000060: 67a1 9fbd 1d90 a03d 80f6 25bc 8813 9d3c
00000070: 4803 943c 6056 9ebb 13e3 863d 8aac 653d
00000080: b292 463d 7711 a53d a092 2fbd 807f b53c
00000090: a565 983d 804b a5bd f457 fa3c 8152 863d
000000a0: 9e4d 7ebd 174e 833d b3bf a3bd c0b9 f4bc
000000b0: 00d2 1bbc d87b a6bc 5f4f 85bd 6f15 63bd
000000c0: ec6b bdbc aa34 eebc a6fa 7cbd 3031 8dbb
000000d0: 0cd2 dc3c bf72 98bd 8247 243d 502c 883c
000000e0: 541d bcbc 1d4e 8f3d e027 023b 20a9 c73c
000000f0: 2667 1f3d 401d 84bb b422 59bd 2074 12bc
00000100: 8f2f a7bd 00a2 b6ba f3fe b4bd 0069 cfbb
00000110: ea75 38bd 0cfe be3c 605a 7a3c bd71 943d
00000120: 544d 153d ebba a2bd d864 88bc ae3f 14bd
00000130: 80ed 113c 0051 bf3c 8ad0 afbd 0617 42bd
00000140: d622 5e3d 0c73 c0bc 722f 7c3d 3bdf 01bd
00000150: 6ee1 4a3d e65a 6a3d d0c0 e43b 42d5 133d
00000160: 80d7 053a d0ca 913c 41aa a93d ba9c 213d
00000170: 05a5 af3d f889 55bc 000a 853b 2894 94bc
00000180: c9df 55bd bab9 80bd 3cee debc 1760 a8bd
00000190: c150 11bd 3ae3 2d3d a618 09bd 537d a2bd
000001a0: 893d 5cbd 40f0 42bc 304c 11bc eae9 283d
000001b0: 749d de3c 73a5 8c3d 008a 003a 2eb6 3fbd
000001c0: 3675 73bd 8886 c23c 1d23 8f3d 408d 393b
000001d0: dd5e 91bd d59c 853d 6872 8d3c 3c2c e13c
000001e0: 0adc 563d 4cf4 853c 460e 4e3d 698c 903d
000001f0: fe0a 723d c225 7d3d 40d4 2a3c d427 e5bc
00000200: 9057 d8be 4c84 aabe fe13 423e 8b47 983e
00000210: e530 913d 6a74 bd3d 95c5 883e 1746 25be
00000220: 21f6 82bb f284 573e a801 76be 2c3d 93bf
00000230: b92f 6ebf b279 5c3d 0e94 8ebe afe6 b13d
00000240: 12e4 643d 7d47 14bd 2525 463f 545c 763f
00000250: 787c c3bc 5743 303f 3087 143e f72a 71bb
00000260: d9e6 09bd 53b7 d23e a941 b03e 19ec 63be
00000270: 864e c1be 36ff 143f e355 3d3f 1487 b73e
00000280: acf4 66bd 1915 523e cbbe a3be 3899 e93e
00000290: c8b5 803f 2946 0fbf 6156 ab3e ec0c 653e
000002a0: 7129 03bf 9db5 803e 3ba9 2bbf 0b49 e5bd
000002b0: c2f6 6bbd 4aeb eabe 346e 98be 0fc8 fd3d
000002c0: 422d 253d 37ab 46be 88a8 69be b7df 4d3e
000002d0: 8c38 cebe be05 6f3f ab56 8bbd 0ca1 a8be
000002e0: 6d7d 3cbe ecb3 57bd 58aa c1bd 475e 6d3e
000002f0: 0c53 f0be c446 123f 3282 663f a538 593f
00000300: ed0c 11bf db34 d7be 38a5 933b 93b9 a1bd
00000310: 09c9 923e dc44 9ebe f3bd c23e 3421 0fbe
00000320: 7e04 80be c72e 0e3e 4619 90be 1fd6 0a3e
00000330: d347 1bbd ad4d c53e 3deb 28be edde 213e
00000340: 82cd 253f f1bf 6e3f d905 0a3f 2b2a 14bf
00000350: 2bf7 82be 8513 36be 0c51 04bc 6bc7 4abc
00000360: 4f99 0c3e c15d 2bbe fc9e 0bbf 3baf 7d3f
00000370: 246e a03e fa1c a2be ffbb 9e3e 56b6 7cbf
00000380: 89c0 513e 1b36 d43e 21ec 1e3f 5a87 4c3e
00000390: ba9a 0abf bce7 a13e b91c 31bf 7ce5 84be
000003a0: 4a84 2abe 1166 8b3f 94f2 53be 8fb5 5d3f
000003b0: d063 313f 2fb4 f3be c228 5f3f 9a90 9c3e
000003c0: 4706 c4be 0bcd 363e d3ea d1bd 40bd 583e
000003d0: 3ab4 ccbd e491 85be c6a4 01bf e379 81be
000003e0: 52a0 633f 5be3 e4bd eb02 953f 38dc 39be
000003f0: d805 1f3e f08d 42bf 3c3b ffbe d062 283f
